model/new_model.pt (torch, 685588 bytes, 10 tensors)

fc1.weight f4 [100, 1131]
000000 00 70 68 3b 00 4f 66 3b a0 08 c7 bc c6 47 8d bc
       0.0035467148 0.0035142303 -0.024296105 -0.017246138
000010 a1 15 f0 bc ae 9b e0 bc c0 20 f0 3c 94 42 c9 3c
       -0.029307188 -0.027417984 0.029312491 0.02456788
000020 b0 13 e7 3b bc 1c e7 3c c6 71 30 bc 02 ee 8a bc
       0.0070519075 0.028211944 -0.010769313 -0.016959194
000030 48 aa cf 3c f0 6d ce ba c0 05 b9 3b 42 00 90 3c
       0.025349751 -0.0015749317 0.0056464374 0.017578248
000040 36 5d 80 3c 60 7a 8b bc fe 68 3c bc 9e ce e0 bc
       0.015669446 -0.017026126 -0.011499641 -0.027442273
000050 a0 b6 ab 3a 40 a9 2e bc 00 40 d1 3b d0 52 b5 3a
       0.0013100691 -0.0106604695 0.006385803 0.0013833884
000060 40 ab cf 3c 30 d6 27 3b b0 25 74 3c f0 ba 19 3c
       0.025350213 0.0025609843 0.0149015635 0.009382948
000070 a2 1e d8 3c 32 86 4a bc 60 64 cb 3c d2 b6 ae 3c
       0.026381794 -0.012361096 0.024828136 0.02132741
000080 56 71 42 bc 82 50 95 3c 9a 32 e1 3c 2c bb 89 bc
       -0.011867842 0.018226866 0.027489949 -0.016812883
000090 84 06 3e bc ea a3 a6 3c 2e 69 c4 3c 44 84 00 3c
       -0.011598233 0.020341832 0.023975935 0.007844035
0000a0 dc 9a 15 3c 3a 6b b4 3c 30 7a d5 3c 30 0f 9a bc
       0.00913116 0.022023786 0.02605924 -0.01880607
0000b0 f2 64 48 bc 40 18 cd 3c 50 91 83 3c c6 96 64 bc
       -0.0122310985 0.025035977 0.016060501 -0.013951963
0000c0 5a 4d 25 bc 28 64 ec 3c dd 90 98 bc 7c b2 9c 3c
       -0.010089243 0.028856352 -0.018623764 0.019128077
0000d0 66 59 8d 3c 2e 9d e9 bc 4a 29 f3 bc a8 ba 21 3c
       0.017254543 -0.028517332 -0.029682774 0.0098711625
0000e0 24 08 6f 3c c0 ea d7 3c 40 30 70 3b 62 41 a5 3c
       0.014589343 0.026357055 0.0036649853 0.020172779
0000f0 5e 1d ad bc 00 67 91 3c 60 a9 ea bc bc ae 9e 3c
       -0.021132167 0.01774931 -0.028645217 0.01937043
000100 80 45 53 3b 62 77 96 3c 48 71 40 3c 60 84 a8 bc
       0.003223747 0.018367473 0.011745758 -0.020570934
000110 00 e5 a1 39 d0 7c 76 3b 90 12 8c 3b b3 46 d5 bc
       0.0003087893 0.0037611015 0.0042746738 -0.026034689
000120 19 14 76 bc 0e 7d 65 bc 5b 67 84 bc e0 6a cf 3c
       -0.01501944 -0.014006866 -0.016162565 0.025319517
000130 5c ca 89 3c 8c 9a 48 3c 2c 0c 12 bc a8 a3 c5 bc
       0.016820125 0.012243878 -0.008914035 -0.024125889
000140 60 58 cf 3b f4 10 e1 3c dc d1 58 3c 71 a9 c4 bc
       0.006327674 0.027473904 0.013233628 -0.024006577
000150 38 c4 2c bb f0 4c 9e 3a 86 97 9a 3c d0 ce 4d 3c
       -0.0026362073 0.0012077373 0.01887108 0.012561515
000160 ef c7 ab bc 2f b8 e5 bc 24 a8 10 3c d8 d4 6d 3c
       -0.02096936 -0.028041927 0.00882915 0.014516078
000170 b2 b5 8b 3c d4 ae a7 3c 2e 54 d7 3c 28 5c 4b bc
       0.017054413 0.020469107 0.026285257 -0.0124121085
000180 1c ef ec bc d0 94 6e 3c 1e f7 ea 3c 66 6d b1 bc
       -0.02892261 0.014561847 0.028682288 -0.02165861
000190 9d 3f 75 bc 2a 90 d0 3c a6 40 be 3c 88 61 3a bb
       -0.01496878 0.025459368 0.023224186 -0.002843948
0001a0 4c 09 8b bc 78 a0 b2 3b c9 94 ee bc 44 6e 40 bc
       -0.016972207 0.0054512583 -0.02912368 -0.011745039
0001b0 08 2f 7c bb 78 39 e8 bb 68 bd 48 3c c0 f0 24 3a
       -0.0038480181 -0.007086929 0.012252189 0.0006291978
0001c0 99 eb bf bc 70 2a 3f bb 20 0a 35 3b 78 33 98 3c
       -0.023427771 -0.0029169582 0.0027624443 0.01857923
0001d0 c0 72 db 3a c2 e0 29 bc bc bd 3d 3c b4 7c 60 3c
       0.0016742572 -0.010368528 0.011580881 0.013701607
0001e0 68 f0 b8 3b 5e cd 82 bc 48 c9 03 3c 20 4b 8b 3b
       0.005643893 -0.015967067 0.008043595 0.004250899
0001f0 f8 bc 88 3c c8 1c 05 bc b0 22 fd ba 28 36 7e 3c
       0.01669167 -0.008124538 -0.0019312706 0.015515842
000200 d8 71 81 bb 08 3e 7e 3c f8 8d 9c bb ec f0 d5 3c
       -0.003950339 0.015517719 -0.004777666 0.026115857
000210 00 95 6f b9 10 89 cd bb 58 ed 28 3c e0 52 c5 ba
       -0.00022848323 -0.0062724426 0.010310493 -0.0015054606
000220 7e fe c2 3c c8 b6 88 bb e4 c3 a3 3c 2c f4 fb bb
       0.023802992 -0.00417218 0.019990869 -0.0076890197
000230 90 30 2b 3b fc fe 1d 3c 35 9e e4 bc 50 89 bb 3b
       0.0026121475 0.009643313 -0.02790747 0.005723156
000240 74 76 84 3c f0 53 40 3c a0 1b 3f 3a d8 4a 49 bb
       0.016169764 0.011738762 0.0007290188 -0.0030714776
000250 e8 52 19 3c a8 7d 13 3c fe b0 6a bc 10 28 3e 3c
       0.009358145 0.009002127 -0.014324425 0.011606231
000260 27 9a d0 bc f0 31 99 3a 20 81 27 bc b4 d7 4b bc
       -0.02546413 0.0011687856 -0.010223657 -0.012441564
000270 65 8e c5 bc 82 7a bf 3c 90 82 33 3b 80 04 06 3b
       -0.02411575 0.023373846 0.0027391054 0.002044946
000280 2c a9 92 bb 4c 09 4a bc 1c 53 bc bc 78 9a b9 3b
       -0.0044757333 -0.012331318 -0.022988848 0.005664166
000290 0e 07 be bc fa 7b 50 bc a0 e6 74 3c 2a d1 cb 3c
       -0.023196723 -0.012724871 0.014947563 0.02488001
0002a0 c0 b5 1b bc 57 f6 ef bc a6 39 ee 3c 7a dd 83 3c
       -0.009503782 -0.029292269 0.029080223 0.01609682
0002b0 88 ca af 3c 64 b6 b1 bb a0 c5 c8 bb c0 8d 3e 3b
       0.02145888 -0.005423354 -0.0061270744 0.0029076189
0002c0 c0 76 ee 3b 20 7b 49 3a 98 d9 7c bc 5a 95 d9 3c
       0.0072773397 0.00076858886 -0.015432738 0.026560474
0002d0 84 85 63 3c 80 0f 30 bb e9 80 cf bc a9 f0 6f bc
       0.013886813 -0.0026864707 -0.025330024 -0.01464478
0002e0 aa ea 29 bc bc 83 a2 bb b0 d4 06 3c 0c d4 a2 bb
       -0.01037089 -0.0049595516 0.00822942 -0.0049691256
0002f0 14 94 28 3c 4c 38 9e bc 08 34 d5 bb c0 30 5c 3c
       0.010289211 -0.019313954 -0.0065064467 0.013439357
000300 6e 3b ef 3c 1e c8 cd bc a0 96 4a 3b 78 a4 80 3c
       0.029203143 -0.025119837 0.0030912533 0.015703425
000310 e0 39 52 bb 88 01 e3 3b 30 15 98 3c f7 09 f2 bc
       -0.0032077953 0.006927673 0.01856479 -0.029545767
000320 82 3d 90 3c b3 c3 d9 bc 68 02 b5 3b 58 71 93 3c
       0.017607454 -0.026582574 0.0055239685 0.017998382
000330 26 75 5d bc 00 ba 8c 39 15 d9 e9 bc 10 0d f0 ba
       -0.0135167 0.00026841462 -0.028545896 -0.001831444
000340 ec 44 89 3c 7c d1 72 3c 44 32 02 3c 10 e8 1f bb
       0.016756497 0.014820453 0.007946555 -0.0024399795
000350 e4 9c 47 bc 80 01 c6 3c 7c e2 0f 3c 44 58 2d 3c
       -0.012183402 0.024170637 0.008782025 0.010580126
000360 60 38 6d 3c 2e b4 09 bc 28 ab 14 bb d6 d9 e5 3c
       0.014478773 -0.008404775 -0.0022685025 0.028057974
000370 86 08 da 3c 45 c3 f1 bc b0 e0 cf bc bc ff 0b bc
       0.026615392 -0.029512057 -0.025375694 -0.008544859
000380 30 4a f6 3b 66 ef 7e bc f4 63 71 3c 5c 8b da bc
       0.007516168 -0.015560007 0.014733303 -0.02667778
000390 10 90 6b bb b2 03 9d 3c 8c b7 f8 bb 34 6d f9 bb
       -0.0035944022 0.019166801 -0.00759024 -0.007611895
0003a0 c8 59 d3 3b ce 99 ba 3c 18 92 da 3b e0 25 41 3a
       0.0064499117 0.022778418 0.0066702478 0.00073680095
0003b0 40 e2 40 ba 54 6d ce bc 80 f1 40 bc 36 9e f2 3c
       -0.00073579326 -0.025198616 -0.011776328 0.029616456
0003c0 ec 07 a3 bc 90 e0 65 3c 8a 2c 29 bc 80 e3 24 3c
       -0.019901238 0.014030591 -0.01032556 0.010064006
0003d0 8c 47 58 3c 08 45 ac 3c de 26 97 bc 40 42 77 bb
       0.013200652 0.02102901 -0.01845115 -0.0037728697
0003e0 ea 0b a6 bc 38 92 c6 3b aa 9a 66 bc d0 9f 40 3b
       -0.020269353 0.006059911 -0.014074961 0.002939213
0003f0 1a 67 c8 bc 94 ec db bb 1c 7c cb bc de 1b ce bc
       -0.024463225 -0.006711552 -0.024839453 -0.025159772

fc1.bias f4 [100]
000000 9a ec c1 bc 9c 67 9d bb 9c b9 c7 3c 60 24 46 ba
       -0.02367239 -0.004803611 0.024380498 -0.0007558521
000010 f4 ff e7 3c 68 0b cb 3b 08 70 c3 bc 1e 23 83 3c
       0.02832029 0.006196428 -0.023857132 0.016007956
000020 00 e2 64 bc 88 64 28 3c 6a bd 8c bc fc dd a2 bc
       -0.013969898 0.010277875 -0.017180163 -0.019881241
000030 9e 9c a3 bc 0c d1 6e 3c 20 2c 3e 3c 98 86 c5 bc
       -0.019972142 0.014576208 0.0116072 -0.02411203
000040 50 14 ed ba e0 85 cb ba f0 18 20 3c 01 e3 ed bc
       -0.0018087719 -0.0015527569 0.009771571 -0.029038908
000050 c8 dc c3 bc 16 29 e7 3c c8 4a c8 3c d0 57 6a 3c
       -0.023908988 0.028217833 0.024449721 0.014303163
000060 78 11 56 3c 55 9f cc bc 64 f5 60 3c 84 0a 00 3c
       0.013065688 -0.02497832 0.013730381 0.007815007
000070 64 2b 0a 3c 60 fe f2 bb 7c b6 88 bb a2 f2 b6 bc
       0.008433197 -0.007415578 -0.0041721445 -0.022332493
000080 e4 b4 57 bc a0 1a 12 ba 62 14 18 bc 30 61 5b bc
       -0.013165686 -0.00055734254 -0.009282203 -0.0133898705
000090 e6 a2 a7 bc a0 40 43 3b ce 8a ca 3c 92 f7 ca 3c
       -0.020463418 0.0029793158 0.02472439 0.024776254
0000a0 0a b7 ea 3c fc f2 bf bc f0 d7 19 3c a8 32 31 3c
       0.028651733 -0.023431294 0.009389862 0.0108153
0000b0 f0 07 93 ba 3c 75 ee bb 35 f4 ba bc 00 0d 26 3c
       -0.0011217576 -0.007277159 -0.022821525 0.010134935
0000c0 c8 7c 67 bc 05 2d c9 bc 89 b1 cd bc 62 b5 9f 3c
       -0.014128871 -0.0245576 -0.02510907 0.01949567
0000d0 7a a1 8a bc f0 d4 68 bc 44 af 24 3c 34 60 51 3c
       -0.016922701 -0.0142109245 0.010051552 0.012779284
0000e0 b8 eb 58 3c e6 a1 af 3c d0 47 ab bc 86 04 95 bc
       0.0132397935 0.021439504 -0.020908266 -0.018190634
0000f0 3e c7 c9 3c 60 ad 9f 3b 98 56 a8 bb d4 23 c2 bc
       0.024631139 0.004872963 -0.005137276 -0.023698725
000100 94 28 1c 3c 7a b2 d0 3c 00 7b 0d 3c 58 1b e6 bc
       0.009531159 0.02547573 0.0086352825 -0.02808921
000110 c2 00 86 bc e8 43 71 3c 44 4d 84 3c 28 9f 54 bc
       -0.016357783 0.014725663 0.016150124 -0.012977399
000120 02 e4 93 bc 70 d0 2f 3b 50 02 92 bc 59 62 eb bc
       -0.018053059 0.002682712 -0.017823368 -0.02873342
000130 96 00 96 3c 00 1a 83 b8 56 9b 3a bc e0 1e 09 bb
       0.018310826 -6.25141e-05 -0.011389574 -0.0020922944
000140 e8 36 2b bb 46 ca d8 3c 34 98 37 bc 34 e9 6b 3c
       -0.0026125256 0.026463639 -0.011205722 0.014398862
000150 60 45 57 3c 4b e0 f1 bc d4 f1 41 3c 18 13 c3 3b
       0.013139099 -0.029525897 0.0118374415 0.005953204
000160 d8 a0 9a 3c 98 cf cf 3b 94 38 cf bb 35 af cf bc
       0.018875524 0.006341886 -0.0063238833 -0.0253521
000170 40 94 20 bc da 03 94 3c a0 91 0d bb 16 1b e1 bc
       -0.009800971 0.018068243 -0.0021601692 -0.027478736
000180 a5 53 8c bc c0 53 46 3b 58 56 52 bc f6 a9 85 3c
       -0.017129729 0.0030262321 -0.012837969 0.016316395

layer1.weight f4 [100]
000000 00 00 80 3f 00 00 80 3f 00 00 80 3f 00 00 80 3f
       1.0 1.0 1.0 1.0
000010 00 00 80 3f 00 00 80 3f 00 00 80 3f 00 00 80 3f
       1.0 1.0 1.0 1.0
000020 00 00 80 3f 00 00 80 3f 00 00 80 3f 00 00 80 3f
       1.0 1.0 1.0 1.0
000030 00 00 80 3f 00 00 80 3f 00 00 80 3f 00 00 80 3f
       1.0 1.0 1.0 1.0
000040 00 00 80 3f 00 00 80 3f 00 00 80 3f 00 00 80 3f
       1.0 1.0 1.0 1.0
000050 00 00 80 3f 00 00 80 3f 00 00 80 3f 00 00 80 3f
       1.0 1.0 1.0 1.0
000060 00 00 80 3f 00 00 80 3f 00 00 80 3f 00 00 80 3f
       1.0 1.0 1.0 1.0
000070 00 00 80 3f 00 00 80 3f 00 00 80 3f 00 00 80 3f
       1.0 1.0 1.0 1.0
000080 00 00 80 3f 00 00 80 3f 00 00 80 3f 00 00 80 3f
       1.0 1.0 1.0 1.0
000090 00 00 80 3f 00 00 80 3f 00 00 80 3f 00 00 80 3f
       1.0 1.0 1.0 1.0
0000a0 00 00 80 3f 00 00 80 3f 00 00 80 3f 00 00 80 3f
       1.0 1.0 1.0 1.0
0000b0 00 00 80 3f 00 00 80 3f 00 00 80 3f 00 00 80 3f
       1.0 1.0 1.0 1.0
0000c0 00 00 80 3f 00 00 80 3f 00 00 80 3f 00 00 80 3f
       1.0 1.0 1.0 1.0
0000d0 00 00 80 3f 00 00 80 3f 00 00 80 3f 00 00 80 3f
       1.0 1.0 1.0 1.0
0000e0 00 00 80 3f 00 00 80 3f 00 00 80 3f 00 00 80 3f
       1.0 1.0 1.0 1.0
0000f0 00 00 80 3f 00 00 80 3f 00 00 80 3f 00 00 80 3f
       1.0 1.0 1.0 1.0
000100 00 00 80 3f 00 00 80 3f 00 00 80 3f 00 00 80 3f
       1.0 1.0 1.0 1.0
000110 00 00 80 3f 00 00 80 3f 00 00 80 3f 00 00 80 3f
       1.0 1.0 1.0 1.0
000120 00 00 80 3f 00 00 80 3f 00 00 80 3f 00 00 80 3f
       1.0 1.0 1.0 1.0
000130 00 00 80 3f 00 00 80 3f 00 00 80 3f 00 00 80 3f
       1.0 1.0 1.0 1.0
000140 00 00 80 3f 00 00 80 3f 00 00 80 3f 00 00 80 3f
       1.0 1.0 1.0 1.0
000150 00 00 80 3f 00 00 80 3f 00 00 80 3f 00 00 80 3f
       1.0 1.0 1.0 1.0
000160 00 00 80 3f 00 00 80 3f 00 00 80 3f 00 00 80 3f
       1.0 1.0 1.0 1.0
000170 00 00 80 3f 00 00 80 3f 00 00 80 3f 00 00 80 3f
       1.0 1.0 1.0 1.0
000180 00 00 80 3f 00 00 80 3f 00 00 80 3f 00 00 80 3f
       1.0 1.0 1.0 1.0

layer1.bias f4 [100]
000000 00 00 00 00 00 00 00 00 00 00 00 00 00 00 00 00
       0.0 0.0 0.0 0.0
000010 00 00 00 00 00 00 00 00 00 00 00 00 00 00 00 00
       0.0 0.0 0.0 0.0
000020 00 00 00 00 00 00 00 00 00 00 00 00 00 00 00 00
       0.0 0.0 0.0 0.0
000030 00 00 00 00 00 00 00 00 00 00 00 00 00 00 00 00
       0.0 0.0 0.0 0.0
000040 00 00 00 00 00 00 00 00 00 00 00 00 00 00 00 00
       0.0 0.0 0.0 0.0
000050 00 00 00 00 00 00 00 00 00 00 00 00 00 00 00 00
       0.0 0.0 0.0 0.0
000060 00 00 00 00 00 00 00 00 00 00 00 00 00 00 00 00
       0.0 0.0 0.0 0.0
000070 00 00 00 00 00 00 00 00 00 00 00 00 00 00 00 00
       0.0 0.0 0.0 0.0
000080 00 00 00 00 00 00 00 00 00 00 00 00 00 00 00 00
       0.0 0.0 0.0 0.0
000090 00 00 00 00 00 00 00 00 00 00 00 00 00 00 00 00
       0.0 0.0 0.0 0.0
0000a0 00 00 00 00 00 00 00 00 00 00 00 00 00 00 00 00
       0.0 0.0 0.0 0.0
0000b0 00 00 00 00 00 00 00 00 00 00 00 00 00 00 00 00
       0.0 0.0 0.0 0.0
0000c0 00 00 00 00 00 00 00 00 00 00 00 00 00 00 00 00
       0.0 0.0 0.0 0.0
0000d0 00 00 00 00 00 00 00 00 00 00 00 00 00 00 00 00
       0.0 0.0 0.0 0.0
0000e0 00 00 00 00 00 00 00 00 00 00 00 00 00 00 00 00
       0.0 0.0 0.0 0.0
0000f0 00 00 00 00 00 00 00 00 00 00 00 00 00 00 00 00
       0.0 0.0 0.0 0.0
000100 00 00 00 00 00 00 00 00 00 00 00 00 00 00 00 00
       0.0 0.0 0.0 0.0
000110 00 00 00 00 00 00 00 00 00 00 00 00 00 00 00 00
       0.0 0.0 0.0 0.0
000120 00 00 00 00 00 00 00 00 00 00 00 00 00 00 00 00
       0.0 0.0 0.0 0.0
000130 00 00 00 00 00 00 00 00 00 00 00 00 00 00 00 00
       0.0 0.0 0.0 0.0
000140 00 00 00 00 00 00 00 00 00 00 00 00 00 00 00 00
       0.0 0.0 0.0 0.0
000150 00 00 00 00 00 00 00 00 00 00 00 00 00 00 00 00
       0.0 0.0 0.0 0.0
000160 00 00 00 00 00 00 00 00 00 00 00 00 00 00 00 00
       0.0 0.0 0.0 0.0
000170 00 00 00 00 00 00 00 00 00 00 00 00 00 00 00 00
       0.0 0.0 0.0 0.0
000180 00 00 00 00 00 00 00 00 00 00 00 00 00 00 00 00
       0.0 0.0 0.0 0.0

fc2.weight f4 [50, 1131]
000000 1d 2e c1 3c 10 86 36 3d d2 9b f0 3c b0 d4 d8 bc
       0.023581559 0.044561446 0.029371176 -0.026468605
000010 18 c9 a7 3c a0 94 5c 3b 8c 2e e0 ba fb 70 3d 3b
       0.020481631 0.0033657923 -0.0017103716 0.0028906453
000020 e8 85 66 bc 14 24 a7 bb 24 f9 c3 3c e1 24 f5 bc
       -0.014070012 -0.0051007364 0.02392251 -0.029924812
000030 33 a3 92 b9 e5 0f d6 bc 4d a3 80 3c e4 15 8b bc
       -0.00027968883 -0.026130626 0.015702868 -0.016978212
000040 32 fa 42 bc 39 b3 d8 3c 25 20 00 3b b1 a5 99 3c
       -0.0119004715 0.026452648 0.001955041 0.018755766
000050 71 50 d7 3c d4 23 c1 bc 8d 06 ec 3b 27 fa 89 3c
       0.026283475 -0.023576654 0.0072029294 0.016842915
000060 cd 86 3e bc f3 d2 a7 3c 91 9e bb bc 33 59 15 3c
       -0.011628819 0.02048633 -0.022902759 0.009115505
000070 f3 9f 07 bc 06 dd 44 bc 01 38 57 bb 32 71 9b 3c
       -0.008277881 -0.012015587 -0.0032839777 0.018974874
000080 0d fd 9a bc 2f 5f 90 bc 8e 6c b9 3c 54 ab 6f 3c
       -0.018919492 -0.017623512 0.02263477 0.01462825
000090 65 82 f3 bb 4c 0c cf bc 94 a8 02 3c 61 a7 68 bb
       -0.0074313157 -0.025274418 0.0079747625 -0.0035500156
0000a0 b8 c5 30 3c 35 cb aa bc 1e 6f b5 3c 92 84 c3 bc
       0.010789327 -0.02084885 0.022147711 -0.023866925
0000b0 84 61 cc 3b 86 ab 91 bc 08 64 23 bc b9 63 d9 bc
       0.0062372107 -0.017781984 -0.00997258 -0.02653681
0000c0 c6 94 78 3c 8c a9 af 3c ff d1 fd bc 0b 0e d7 3c
       0.015172189 0.021443151 -0.030983923 0.026251813
0000d0 26 5b 83 bc 94 62 a6 bc b7 c5 00 3a b0 a4 0f bc
       -0.016034674 -0.020310678 0.00049122743 -0.008767292
0000e0 a1 29 90 3c ba 5d d5 3c ac 62 7d 3c 7b b3 65 3c
       0.017597975 0.026045669 0.01546542 0.014019842
0000f0 cf e1 bc bb 50 32 d5 3c 7a f1 9a bc 8b 82 8b bc
       -0.005764223 0.026024967 -0.018913973 -0.017030021
000100 5e d5 e4 bb ad 38 b2 bb d7 5b a1 3c 81 fb 4b ba
       -0.006983443 -0.005438885 0.019697113 -0.00077813125
000110 71 4a 85 ba 64 f5 af bc 98 1f 6a 3b 9c 86 c5 ba
       -0.001016928 -0.021479316 0.0035724398 -0.0015070024
000120 41 ca 43 3b 08 98 82 3b e1 4b c4 bc ba 1e bf 3c
       0.0029875191 0.0039854087 -0.023961963 0.023330081
000130 e7 68 30 bc 12 01 53 bc e4 bd 09 3c 0f 18 b8 b9
       -0.010767198 -0.012878673 0.00840709 -0.0003511314
000140 94 5b 88 bc 10 20 9e 3c 66 1e 2c 3c 8d c8 be bb
       -0.01664523 0.019302398 0.010505294 -0.0058222474
000150 9d a0 01 bc a7 d2 80 3c 64 15 b0 bc 97 0e 8a 3c
       -0.007911828 0.015725447 -0.021494575 0.01685266
000160 d7 8d d9 bc a0 b7 2f 3c d4 31 38 3b 92 9c 9e 3c
       -0.026556892 0.010724932 0.0028105872 0.019361768
000170 77 c8 08 bb 76 8c f5 3b 79 22 2c bc 45 36 81 3c
       -0.002087144 0.007493551 -0.010506266 0.015772948
000180 69 3e d4 ba b7 83 51 bc 2a f0 f2 bb a8 c7 17 3c
       -0.0016192916 -0.012787751 -0.0074138837 0.00926391
000190 f2 8f ef 3b 83 58 e8 bc 65 9f 8c bc 4b d7 65 bc
       0.007310861 -0.028362518 -0.017165849 -0.014028381
0001a0 eb 01 83 bc c1 6c 91 3c fd 92 cc 3b 4d 8a 79 bc
       -0.015992125 0.017752053 0.0062431083 -0.015230727
0001b0 0b 62 2c bc 1e ac 78 bc 63 16 b6 bc 78 fa a1 3c
       -0.010521422 -0.015177755 -0.022227472 0.019772753
0001c0 65 5e 9d 3c aa ce b3 3c f3 c9 4f bb a2 9a ab bc
       0.01921005 0.021949131 -0.0031706064 -0.020947758
0001d0 ce c2 04 bc 09 5a 77 3c a3 a8 dc 3b 4e 9f 1b bc
       -0.008103086 0.01509715 0.0067339703 -0.00949843
0001e0 42 e9 05 3c 85 e7 fe 3c 6c ef 3f 3c 1f e9 c2 3c
       0.008173289 0.031116256 0.0117147975 0.023792801
0001f0 47 0c 15 3c c7 1c 3d bc 3c 42 0f bc a2 44 9a 3c
       0.009097165 -0.011542506 -0.008743819 0.018831555
000200 27 15 0a bc 8e 0d b4 bb 63 ff 9b 3b ee 80 86 bb
       -0.008427895 -0.00549478 0.004760669 -0.004104725
000210 fd b0 f3 3b aa 75 f8 3c d1 c4 f4 ba 98 77 d4 bc
       0.00743687 0.030329544 -0.0018674379 -0.025935933
000220 1d af 53 3b 6c 61 e3 bc db 0c 03 3c 37 1c bf bc
       0.003230042 -0.027756415 0.00799867 -0.023328884
000230 8a 63 b0 3c 4b eb 44 bc aa fc b0 3c 34 a8 7a bb
       0.021531839 -0.012018989 0.021604855 -0.003824723
000240 27 04 5a bc 0f 0d 8f bb ae 81 09 bb fd 6a bf bc
       -0.013306654 -0.0043655704 -0.0020981836 -0.023366446
000250 42 ec cd bc 59 e4 91 bc f1 77 c1 bc 56 7c d8 3c
       -0.02513707 -0.01780908 -0.023616763 0.026426475
000260 02 ed 76 bc b7 6f cc bb 1a ee 55 bc 98 bc c1 bc
       -0.0150711555 -0.0062389034 -0.013057256 -0.023649499
000270 1a 33 0c bb 9e 2a 2f 3c 1a ea c2 bc f8 a0 61 bb
       -0.0021392764 0.010691313 -0.023793269 -0.003442822
000280 d3 7f bf bc 36 b2 7c ba 01 99 ba 3c 5f 72 f4 bb
       -0.023376381 -0.00096395926 0.022778036 -0.007459923
000290 e0 fa 95 3c 6b 45 6d bb 36 ce c2 3a a3 12 bd 3c
       0.018308103 -0.0036204706 0.0014862481 0.023080176
0002a0 67 33 dc bc 33 41 0d 3b 03 bf 6e 3c 2a ba aa bb
       -0.02687998 0.0021553754 0.014571908 -0.0052101808
0002b0 bc 81 b8 3c f3 2d 83 3b 66 01 23 b9 f2 c9 17 3d
       0.0225228 0.0040032803 -0.00015545412 0.037057824
0002c0 97 7b c2 3c d1 0a fe bb ac b8 9b bc 59 cc f0 bb
       0.023740573 -0.0077527543 -0.019008957 -0.007348579
0002d0 29 7b c8 bb 36 e8 a3 bc 2b 36 b2 3c ed f7 18 3b
       -0.0061181975 -0.020008188 0.021754345 0.0023341135
0002e0 16 39 5a 3d 4f f4 0e 3c 85 a4 45 3c b5 37 74 3c
       0.053277098 0.00872524 0.01206315 0.01490586
0002f0 3d 88 b4 bb f5 09 a8 3c b8 90 68 bc 77 4a cf 3b
       -0.005509405 0.02051256 -0.01419466 0.0063260156
000300 89 e4 87 bc 6b 38 d9 bb d0 63 8b ba 22 f0 5d 3c
       -0.016588466 -0.00662904 -0.0010634605 0.013546022
000310 ff 31 de 3b 94 a5 93 3c 59 03 cb bc 61 03 d9 bc
       0.0067808623 0.01802329 -0.02478187 -0.026490869
000320 30 c8 7b 3c e8 f8 66 b9 18 2d 77 39 40 a5 c2 bc
       0.015367553 -0.00022027234 0.00023572554 -0.023760438
000330 9b 97 1e 3c 62 48 4a bb 6b 45 88 3b 58 17 bf 3b
       0.0096797 -0.0030865897 0.004158666 0.00583164
000340 56 77 40 3c 39 1c 27 3c f0 01 bc 3c 02 e7 3a bc
       0.011747202 0.0101996 0.022950143 -0.011407616
000350 33 51 a0 bb 90 b4 cc bc d9 98 0d 3c 69 a2 26 3c
       -0.004892492 -0.024988443 0.008642399 0.010170558
000360 f9 b7 7e 3c ba d8 27 3b 70 d3 67 3c a5 37 04 3d
       0.015546792 0.0025611357 0.014149532 0.03227963
000370 a0 ac a2 3c 34 c4 1c 3c c5 61 38 3c 15 ae 37 3c
       0.019857705 0.009568263 0.011253779 0.011210938
000380 5b 9b f5 3b 94 d0 cb bc af fc 8e bc 7c be d7 bb
       0.0074953265 -0.024879731 -0.017454473 -0.006583987
000390 e0 aa 38 bc c2 4a 10 3d 4e 19 68 3c b3 0a 40 bc
       -0.0112712085 0.035227545 0.014166189 -0.011721301
0003a0 b9 26 70 3b 07 47 50 3c e2 a0 43 3c c5 35 8d bb
       0.0036644174 0.012712247 0.011940213 -0.0043093883
0003b0 c1 8f bd 3c 67 7a 00 3b 71 85 95 bc 24 f8 cc 3c
       0.023139836 0.0019604207 -0.018252106 0.025020666
0003c0 e7 ce 72 b9 87 fb 4c 3d 9a eb 4b bc d8 db b8 bc
       -0.00023155996 0.050044563 -0.0124463085 -0.022565767
0003d0 48 ff 4d bc 3a c5 b9 bc 7b 27 9b bc 52 62 9d bc
       -0.012573071 -0.022677053 -0.018939724 -0.019211922
0003e0 75 63 2b bc fb 41 67 bc a9 41 bd 3c d1 d0 83 bb
       -0.010460724 -0.014114852 0.023102598 -0.0040226956
0003f0 af 35 5c bc 79 8d ad bc e0 28 0f 3c 30 68 46 3c
       -0.013440534 -0.021185623 0.008737773 0.012109801

fc2.bias f4 [50]
000000 b7 e4 5e 3c 6d 9b fd b9 96 77 c9 3c 3a 82 5d bc
       0.013604335 -0.00048371722 0.024593156 -0.013519818
000010 7b 82 6a 3d 37 76 1d bd 13 7f 51 bc 91 cb 91 bb
       0.057253342 -0.038442817 -0.0127866445 -0.004449316
000020 77 d5 7c 3c 0e a4 eb 3a 40 02 11 3c 2c d6 32 bd
       0.015431753 0.0017977969 0.008850634 -0.04366128
000030 67 2d 43 bb be 60 ec bb f9 15 f3 3c 50 e8 51 3d
       -0.00297817 -0.007213681 0.029673563 0.05124694
000040 e9 fb ff bb 4b 94 b1 3b 4a ba 14 3d 02 5a a7 bc
       -0.0078120125 0.005419289 0.03631047 -0.020428661
000050 15 9e 39 3c ee 1d d9 3b 51 ef 48 bd 11 a4 0c 3e
       0.011329194 0.0066258823 -0.049056355 0.13734461
000060 ba fb 5c bc 20 29 a5 bb 7a b7 f1 3d d9 36 15 3c
       -0.013487751 -0.005040303 0.118025735 0.009107315
000070 fd 6c ab bb c7 38 48 bc 6f 6d 9c bb 76 6f 6f bc
       -0.0052314983 -0.012220568 -0.0047737877 -0.014613977
000080 f4 ce da bc 38 52 0b bd 51 69 e1 ba 28 13 8b 3d
       -0.026710011 -0.034013957 -0.0017197524 0.06790763
000090 60 c6 46 bd 72 ca 91 bc e4 06 42 3c 0c 80 8a ba
       -0.04852903 -0.017796729 0.011842463 -0.0010566725
0000a0 47 b5 21 3d a0 6b b5 3c 02 84 f1 3c b9 3c 35 bd
       0.03947952 0.022146046 0.029481892 -0.044247363
0000b0 50 9d 3c bd b8 28 65 bc 6a 02 70 39 2f 75 01 3c
       -0.046048462 -0.013986759 0.00022889083 0.007901474
0000c0 34 cd 7f ba 4b a0 b3 bc
       -0.00097580557 -0.02192702

layer2.weight f4 [50]
000000 47 ac 6b 3f b0 79 82 3f 84 d8 83 3f a4 cb 8b 3f
       0.9205975 1.0193386 1.030045 1.0921521
000010 b3 88 a9 3f b5 c6 9a 3f 5b 57 6e 3f d6 d5 95 3f
       1.3244842 1.209189 0.93102044 1.1705883
000020 27 ca 6e 3f f3 c6 6e 3f f6 4a 6a 3f d8 e0 8a 3f
       0.9327721 0.9327232 0.9152063 1.0849867
000030 5b d2 83 3f a4 dc 69 3f 49 1d 7e 3f 43 ac b8 3f
       1.029857 0.91352296 0.99263436 1.442757
000040 e9 54 82 3f 48 0b 6e 3f 9c ae 86 3f ff 37 6e 3f
       1.0182163 0.92985964 1.0522037 0.93054193
000050 13 bb 70 3f 7e f3 a0 3f 10 eb 86 3f 22 72 ad 3f
       0.9403545 1.2574308 1.0540485 1.3550456
000060 0c 63 8e 3f e7 f6 6a 3f 27 18 ac 3f e6 85 85 3f
       1.1123977 0.91782993 1.3444871 1.0431488
000070 44 d3 94 3f 01 07 70 3f 81 7f 72 3f 0e e2 6b 3f
       1.1626973 0.9376069 0.94725806 0.9214181
000080 ed 2b 7c 3f 75 e6 92 3f 36 d1 6d 3f 0a f5 8c 3f
       0.98504525 1.147658 0.92897356 1.101228
000090 8c 49 aa 3f 0f 89 74 3f 0b 4c 96 3f 73 08 6d 3f
       1.3303695 0.95521635 1.1741956 0.9259102
0000a0 c1 08 95 3f fc 67 77 3f ce f1 80 3f 96 f5 8c 3f
       1.1643296 0.9664304 1.0073793 1.1012447
0000b0 24 14 89 3f 0f 7e 6d 3f 51 32 71 3f 66 f3 69 3f
       1.0709271 0.92770475 0.942174 0.9138702
0000c0 e0 50 69 3f d9 77 80 3f
       0.9113903 1.0036575

layer2.bias f4 [50]
000000 43 fa 59 3c 1c 1a 82 3d 59 b1 c0 3d 72 bf d1 3d
       0.013304296 0.06352636 0.094088264 0.102415934
000010 96 6d 27 3e 59 a7 d3 3d df aa b8 3c f6 85 d3 3d
       0.16350397 0.103346534 0.022542415 0.103282854
000020 3c e8 5c 3c e2 30 b4 3c b2 12 a6 3b ad b4 9f 3d
       0.013483103 0.021995965 0.0050681466 0.07798133
000030 f5 bd 94 3d 90 80 74 3b bb 6c 87 3d 03 47 48 3e
       0.07262794 0.0037308075 0.066125356 0.19558339
000040 89 18 78 3d 4f da 21 3d 6f 92 db 3d 9c 7e 22 3c
       0.060570274 0.039514836 0.10721289 0.009917881
000050 e4 d3 2c 3d 63 44 de 3d 83 df b9 3d 59 bd 4b 3e
       0.042194262 0.108528875 0.090758346 0.19896449
000060 06 2e d3 3d 82 c0 53 3c 91 73 4c 3e f6 10 3b 3d
       0.10311513 0.012924315 0.1996596 0.045670472
000070 3b 88 de 3d ce e1 e1 3c f0 29 07 3d 05 0a 55 3c
       0.10865828 0.027573492 0.03299898 0.013002877
000080 86 b5 36 3d 86 a4 bb 3d e4 6a 52 3c 24 c0 f1 3d
       0.044606708 0.0916224 0.0128428675 0.11804226
000090 b1 1d fc 3d 21 df 77 3c 4b b9 01 3e 18 2a 29 3c
       0.12310351 0.015128882 0.1266834 0.010324977
0000a0 4b 3b 17 3e 4f 2f 2e 3d 1c 40 90 3d 46 cb ab 3d
       0.14768712 0.042525586 0.07043478 0.08388381
0000b0 a7 78 af 3d 82 71 cc 3b 81 1e 48 3d b3 99 c9 bb
       0.085679345 0.006239117 0.048857216 -0.0061523556
0000c0 25 dc da 3a 8c c7 a8 3d
       0.0016697688 0.082411855

fc3.weight f4 [8, 50]
000000 69 fe 71 bd aa c9 33 3e 45 e5 fb 3d b6 b0 16 3e
       -0.059080515 0.17557397 0.12299589 0.14715847
000010 bd ec e6 3d 54 60 68 be 1c ae ea bd 75 ed e2 bd
       0.11275623 -0.22692996 -0.1145899 -0.110804476
000020 c5 55 f4 bd d1 8c 38 bd 2d c3 bf bd b7 d6 b7 bd
       -0.11930422 -0.045056168 -0.09363399 -0.089765005
000030 69 9d c3 bd 92 f9 85 3d f6 e6 5c 3e d2 c9 ee 3c
       -0.09551508 0.065417424 0.2157248 0.02914897
000040 ff 10 1e 3e 9a 4b 1b bc 8e f0 81 3e 47 39 a3 3c
       0.15436171 -0.009478474 0.2537884 0.019924773
000050 dc b3 e6 bd cb 3c 09 3e 0e a3 ca bc 02 a6 ab 3d
       -0.11264774 0.13402097 -0.024735954 0.08381273
000060 6c 07 6d be 5b 40 d1 bd 71 35 72 3e 78 c9 a1 bd
       -0.23147362 -0.10217353 0.23653199 -0.07899755
000070 36 d5 46 be 2e ee 06 3e 42 2e d8 bd cd 04 15 3e
       -0.19417271 0.13176796 -0.10555698 0.14552613
000080 aa 53 0d bd 78 2c 86 3e ad 2c c4 3c bf 52 31 be
       -0.034503616 0.26205802 0.023947084 -0.17316721
000090 2e e0 c9 be 6c d6 b8 bb 7c 75 e8 be 3b a4 4b bc
       -0.39428848 -0.0056407955 -0.45402133 -0.012429292
0000a0 01 f6 be bd bd ec e5 3d 5a 3e 87 bb 10 d8 5c be
       -0.09324265 0.11226795 -0.004127306 -0.21566796
0000b0 61 58 e5 3d bc 27 f4 bd 6b 57 df 3d 91 be 04 3e
       0.111984976 -0.11921641 0.109053455 0.1296332
0000c0 9f 58 dd 3d 5e 1e f6 3d aa e5 03 3c 72 9e 76 be
       0.10807919 0.12017511 0.008050362 -0.2408388
0000d0 4e db ff bd 59 fb 55 3d 8d 46 94 3d ca 4a c8 3e
       -0.12493001 0.052241657 0.07240019 0.3911956
0000e0 3f 87 36 3e 13 46 5d 3d 7b fd d4 3d 69 cd 47 bc
       0.1782503 0.054021906 0.1039991 -0.01219497
0000f0 22 7a d0 ba 90 fc 1e bd 9b 3e 17 bd 3d 84 8b bd
       -0.0015905539 -0.03881508 -0.03692494 -0.06812332
000100 9e 3c 53 be 04 d1 a2 bc 64 5a 06 3e 68 a9 ae 3d
       -0.20628592 -0.019875057 0.13120419 0.085284054
000110 db 42 79 bc ba 2b 16 3d 8f 0b 47 be 58 00 7c 3e
       -0.0152136935 0.036662795 -0.19438003 0.24609506
000120 3e 0e 56 3e cb 35 97 be 2b 77 07 be fe 5b f8 bd
       0.2090387 -0.29533228 -0.13229053 -0.12126921
000130 20 01 e6 bd 3d 61 74 3e bc e7 8f 3e bf 37 40 3d
       -0.11230683 0.23865218 0.28106487 0.046928164
000140 6a 87 ff 3d bc 07 a6 3d c3 50 17 3c 44 18 be bd
       0.12477 0.08106944 0.009235564 -0.09281972
000150 68 fd b8 bc c3 dd ec bc d8 c7 cf be 6a 85 21 bd
       -0.022581771 -0.028914338 -0.40582156 -0.039433874
000160 e3 bc 15 be 32 07 30 3e 56 c1 56 be 8a 1c a2 3d
       -0.14622836 0.17190245 -0.2097219 0.079156
000170 aa d2 bf bc c4 2b 62 bd cb 3d 16 be 52 fe 02 3e
       -0.023415882 -0.05521752 -0.1467201 0.12792328
000180 c6 b0 2b 3e 56 00 c6 3d 2c 75 4e bc a0 e9 50 be
       0.16766652 0.09668033 -0.012601178 -0.20401621
000190 f9 51 33 3c 49 4b 14 3e 88 1c 53 be 35 1b 29 be
       0.010944837 0.14481844 -0.20616353 -0.16514285
0001a0 7e 23 39 be 9a 3b a7 3d 23 84 0e be db 0b 13 3e
       -0.18079945 0.08165665 -0.13917594 0.14359991
0001b0 44 58 e6 bc 47 5c 81 ba 78 0c 98 3c 25 34 90 3e
       -0.02811826 -0.000986942 0.018560633 0.28164783
0001c0 d7 0d b7 bd f3 cc e2 3d 8e ae 66 be b8 54 a9 bd
       -0.089381866 0.11074247 -0.22527525 -0.08268112
0001d0 da 1c 1d be 60 8c b4 bc 15 91 30 be 36 eb 4f bd
       -0.15343037 -0.022039592 -0.17242844 -0.050761424
0001e0 66 80 2b bd 7d 68 15 3c e2 0a 1c 3e d6 bd 58 be
       -0.041870497 0.00911915 0.15238526 -0.21166167
0001f0 aa 0f e5 bc 87 83 c1 bd ff 4d 88 3e 33 bd 17 3e
       -0.02796157 -0.09448915 0.26622006 0.14818268
000200 4c 60 e3 bc 93 06 5f 3e 2f 13 0c be 7e 2d 9b bd
       -0.027755879 0.21779852 -0.13679193 -0.07577036
000210 20 ec 75 bc e9 4d 7c be 29 f2 19 bd b0 ac b5 3e
       -0.01500991 -0.24639095 -0.037584458 0.35483313
000220 ad 90 8a be 9b b1 15 3e 36 68 39 be 23 55 93 3d
       -0.27063504 0.14618532 -0.1810616 0.07193973
000230 e5 ce 1c be 7c 00 25 3e 1f 87 34 3e 9d e6 49 3e
       -0.15313299 0.16113466 0.1762967 0.19716878
000240 41 3d f1 3c 70 53 d9 bd db fc dd bd 7a af 6c 3c
       0.029448153 -0.106116176 -0.10839244 0.014446134
000250 b4 23 64 3d a1 99 67 be 47 00 ec 3d 64 86 d3 bd
       0.05569811 -0.22617199 0.115234904 -0.10328367
000260 46 79 23 3e 61 74 0b 3e b1 46 36 bf 36 31 d9 3e
       0.15964231 0.13618614 -0.71201617 0.42420357
000270 ec fb 94 3d 07 4e d4 bd 31 80 2d 3e 9c b9 84 3d
       0.07274613 -0.10366445 0.16943432 0.06480715
000280 0a 73 24 3e 78 b6 d1 3e c8 31 6b be d6 1f a5 bd
       0.16059509 0.40959525 -0.22968209 -0.08062713
000290 ed 47 4b bc 50 39 f5 be b9 4c 79 be 2b 6d 37 be
       -0.012407285 -0.47895288 -0.24345674 -0.17912738
0002a0 b3 64 a2 be 0b d1 86 bc 43 aa 71 3d 03 b4 cf be
       -0.31717452 -0.016457101 0.059000265 -0.40567026
0002b0 ee 55 33 3e 9d ee 09 3e dc c9 06 be e2 07 09 3e
       0.17513248 0.1346993 -0.1316294 0.13381913
0002c0 8b 87 6e bd 29 29 5d 3d 97 ff 41 be 98 31 4c 3d
       -0.058234733 0.05399433 -0.18945156 0.049851984
0002d0 48 59 b6 bd 55 9c d9 3d 89 1f 69 be 7c e3 a4 3d
       -0.08903748 0.10625521 -0.22765936 0.08051202
0002e0 a7 8d 4b 3e c7 7c 41 be 14 9b 44 be b9 42 be bd
       0.19878255 -0.18895255 -0.19199783 -0.0929007
0002f0 fc 81 c0 3e df 3a 20 bd 96 99 00 bf 14 b1 e3 bd
       0.3759917 -0.039118644 -0.50234354 -0.11117759
000300 c1 13 ec bd ec 56 ab 3e 38 70 b2 bd df 63 da bd
       -0.11527205 0.33464754 -0.0871281 -0.1066358
000310 19 9e ec bd cf 15 a8 3d d5 0e f8 3c a4 9c 8b 3e
       -0.11553592 0.08207285 0.03028051 0.27267945
000320 57 0f aa 3d da 5e 82 be 6b d4 3a 3e 88 f8 9b be
       0.08303707 -0.2546299 0.18245094 -0.30463052
000330 40 d7 6e 3e 53 c0 ce 3d 3b e9 cb 3d a3 e2 d9 be
       0.23324299 0.10095277 0.099565946 -0.42555723
000340 d4 8c 0a 3d eb 1d 27 3e 8b 9f 12 3e e3 0c 43 3e
       0.03382571 0.16320007 0.14318673 0.19047885
000350 7c ae 7b be ba 46 ff 3d 3f 38 21 bd 63 4c 15 bf
       -0.2457828 0.12464662 -0.03936028 -0.5831968
000360 03 b7 9a 3e d1 8f 99 bd ab 9d c5 bd cb 11 4d 3e
       0.30217752 -0.07498134 -0.096492134 0.20026319
000370 22 0b 23 be ae 4e c1 be 8f 21 ac be 10 2e ad be
       -0.15922216 -0.3775534 -0.33619353 -0.33824205
000380 fb 0d b3 be 17 e1 9e 3d c4 47 36 bf 2e 84 77 3e
       -0.34971604 0.07757776 -0.71203256 0.24171516
000390 25 eb 6b be f1 b2 8d bc d9 8b 6f 3e 85 83 b1 3d
       -0.2303892 -0.01729724 0.23393191 0.086676635
0003a0 5e 59 2c 3c 49 3e ba bd 8a 4c be bc 02 68 76 be
       0.010519354 -0.09093911 -0.023229856 -0.24063113
0003b0 a4 3e 11 be 87 b4 27 3e 31 32 0f be bb 04 0a bc
       -0.14184052 0.1637746 -0.1398399 -0.008423979
0003c0 6c a5 d3 3d 84 0f 15 3e 0b 89 88 3e af db 14 bd
       0.10334286 0.145567 0.26667055 -0.03634232
0003d0 b4 af a6 3e 98 c5 1c 3d 01 12 f8 bd 0d 14 fa bb
       0.32555926 0.038274378 -0.12112809 -0.007631785
0003e0 e9 a0 96 3c 1a 29 e6 bd c0 51 f0 3d fd 70 4c 3e
       0.018387275 -0.11238308 0.117343426 0.19964977
0003f0 3b 0f 59 be bc 5e fe 3e 1e 3d a0 3d c2 f5 9f bc
       -0.21197216 0.49681652 0.07824157 -0.019526366

fc3.bias f4 [8]
000000 83 5c f1 bd 06 31 47 bd 46 5b 76 bd 75 28 d0 bd
       -0.11785223 -0.048630737 -0.06014564 -0.101639666
000010 3a ac a9 bd a0 26 47 be 24 a9 27 be e6 eb 07 be
       -0.08284803 -0.19448328 -0.16373116 -0.13273582
